…
Namespace(auto_aug=False, batch_size=96, classes=10, cutout=False, cutout_length=16, data_dir='/home/work/dataset/', dataset='cifar10', epochs=600, exp_name='spos_cifar10', layers=20, learning_rate=0.025, momentum=0.9, num_choices=4, random_search=1000, resize=False, val_interval=5, weight_decay=0.0003)
Train on GPU!
Files already downloaded and verified
Files already downloaded and verified
Random Path of the Supernet: Params: 2.35M, Flops:191.07M
----------------------------------------------------------------
        Layer (type)               Output Shape         Param #
================================================================
            Conv2d-1           [-1, 16, 32, 32]             432
       BatchNorm2d-2           [-1, 16, 32, 32]               0
             ReLU6-3           [-1, 16, 32, 32]               0
            Conv2d-4           [-1, 32, 32, 32]             256
       BatchNorm2d-5           [-1, 32, 32, 32]               0
              ReLU-6           [-1, 32, 32, 32]               0
            Conv2d-7           [-1, 32, 32, 32]           1,568
       BatchNorm2d-8           [-1, 32, 32, 32]               0
            Conv2d-9           [-1, 56, 32, 32]           1,792
      BatchNorm2d-10           [-1, 56, 32, 32]               0
             ReLU-11           [-1, 56, 32, 32]               0
     Choice_Block-12           [-1, 64, 32, 32]               0
           Conv2d-13           [-1, 32, 32, 32]             288
      BatchNorm2d-14           [-1, 32, 32, 32]               0
           Conv2d-15           [-1, 32, 32, 32]           1,024
      BatchNorm2d-16           [-1, 32, 32, 32]               0
             ReLU-17           [-1, 32, 32, 32]               0
           Conv2d-18           [-1, 32, 32, 32]             288
      BatchNorm2d-19           [-1, 32, 32, 32]               0
           Conv2d-20           [-1, 32, 32, 32]           1,024
      BatchNorm2d-21           [-1, 32, 32, 32]               0
             ReLU-22           [-1, 32, 32, 32]               0
           Conv2d-23           [-1, 32, 32, 32]             288
      BatchNorm2d-24           [-1, 32, 32, 32]               0
           Conv2d-25           [-1, 32, 32, 32]           1,024
      BatchNorm2d-26           [-1, 32, 32, 32]               0
             ReLU-27           [-1, 32, 32, 32]               0
   Choice_Block_x-28           [-1, 64, 32, 32]               0
           Conv2d-29           [-1, 32, 32, 32]             288
      BatchNorm2d-30           [-1, 32, 32, 32]               0
           Conv2d-31           [-1, 32, 32, 32]           1,024
      BatchNorm2d-32           [-1, 32, 32, 32]               0
             ReLU-33           [-1, 32, 32, 32]               0
           Conv2d-34           [-1, 32, 32, 32]             288
      BatchNorm2d-35           [-1, 32, 32, 32]               0
           Conv2d-36           [-1, 32, 32, 32]           1,024
      BatchNorm2d-37           [-1, 32, 32, 32]               0
             ReLU-38           [-1, 32, 32, 32]               0
           Conv2d-39           [-1, 32, 32, 32]             288
      BatchNorm2d-40           [-1, 32, 32, 32]               0
           Conv2d-41           [-1, 32, 32, 32]           1,024
      BatchNorm2d-42           [-1, 32, 32, 32]               0
             ReLU-43           [-1, 32, 32, 32]               0
   Choice_Block_x-44           [-1, 64, 32, 32]               0
           Conv2d-45           [-1, 32, 32, 32]           1,024
      BatchNorm2d-46           [-1, 32, 32, 32]               0
             ReLU-47           [-1, 32, 32, 32]               0
           Conv2d-48           [-1, 32, 32, 32]           1,568
      BatchNorm2d-49           [-1, 32, 32, 32]               0
           Conv2d-50           [-1, 32, 32, 32]           1,024
      BatchNorm2d-51           [-1, 32, 32, 32]               0
             ReLU-52           [-1, 32, 32, 32]               0
     Choice_Block-53           [-1, 64, 32, 32]               0
           Conv2d-54           [-1, 80, 32, 32]           5,120
      BatchNorm2d-55           [-1, 80, 32, 32]               0
             ReLU-56           [-1, 80, 32, 32]               0
           Conv2d-57           [-1, 80, 16, 16]           3,920
      BatchNorm2d-58           [-1, 80, 16, 16]               0
           Conv2d-59           [-1, 96, 16, 16]           7,680
      BatchNorm2d-60           [-1, 96, 16, 16]               0
             ReLU-61           [-1, 96, 16, 16]               0
           Conv2d-62           [-1, 64, 16, 16]           3,136
      BatchNorm2d-63           [-1, 64, 16, 16]               0
           Conv2d-64           [-1, 64, 16, 16]           4,096
      BatchNorm2d-65           [-1, 64, 16, 16]               0
             ReLU-66           [-1, 64, 16, 16]               0
     Choice_Block-67          [-1, 160, 16, 16]               0
           Conv2d-68           [-1, 80, 16, 16]             720
      BatchNorm2d-69           [-1, 80, 16, 16]               0
           Conv2d-70           [-1, 80, 16, 16]           6,400
      BatchNorm2d-71           [-1, 80, 16, 16]               0
             ReLU-72           [-1, 80, 16, 16]               0
           Conv2d-73           [-1, 80, 16, 16]             720
      BatchNorm2d-74           [-1, 80, 16, 16]               0
           Conv2d-75           [-1, 80, 16, 16]           6,400
      BatchNorm2d-76           [-1, 80, 16, 16]               0
             ReLU-77           [-1, 80, 16, 16]               0
           Conv2d-78           [-1, 80, 16, 16]             720
      BatchNorm2d-79           [-1, 80, 16, 16]               0
           Conv2d-80           [-1, 80, 16, 16]           6,400
      BatchNorm2d-81           [-1, 80, 16, 16]               0
             ReLU-82           [-1, 80, 16, 16]               0
   Choice_Block_x-83          [-1, 160, 16, 16]               0
           Conv2d-84           [-1, 80, 16, 16]           6,400
      BatchNorm2d-85           [-1, 80, 16, 16]               0
             ReLU-86           [-1, 80, 16, 16]               0
           Conv2d-87           [-1, 80, 16, 16]             720
      BatchNorm2d-88           [-1, 80, 16, 16]               0
           Conv2d-89           [-1, 80, 16, 16]           6,400
      BatchNorm2d-90           [-1, 80, 16, 16]               0
             ReLU-91           [-1, 80, 16, 16]               0
     Choice_Block-92          [-1, 160, 16, 16]               0
           Conv2d-93           [-1, 80, 16, 16]           6,400
      BatchNorm2d-94           [-1, 80, 16, 16]               0
             ReLU-95           [-1, 80, 16, 16]               0
           Conv2d-96           [-1, 80, 16, 16]           2,000
      BatchNorm2d-97           [-1, 80, 16, 16]               0
           Conv2d-98           [-1, 80, 16, 16]           6,400
      BatchNorm2d-99           [-1, 80, 16, 16]               0
            ReLU-100           [-1, 80, 16, 16]               0
    Choice_Block-101          [-1, 160, 16, 16]               0
          Conv2d-102          [-1, 160, 16, 16]          25,600
     BatchNorm2d-103          [-1, 160, 16, 16]               0
            ReLU-104          [-1, 160, 16, 16]               0
          Conv2d-105            [-1, 160, 8, 8]           7,840
     BatchNorm2d-106            [-1, 160, 8, 8]               0
          Conv2d-107            [-1, 160, 8, 8]          25,600
     BatchNorm2d-108            [-1, 160, 8, 8]               0
            ReLU-109            [-1, 160, 8, 8]               0
          Conv2d-110            [-1, 160, 8, 8]           7,840
     BatchNorm2d-111            [-1, 160, 8, 8]               0
          Conv2d-112            [-1, 160, 8, 8]          25,600
     BatchNorm2d-113            [-1, 160, 8, 8]               0
            ReLU-114            [-1, 160, 8, 8]               0
    Choice_Block-115            [-1, 320, 8, 8]               0
          Conv2d-116            [-1, 160, 8, 8]          25,600
     BatchNorm2d-117            [-1, 160, 8, 8]               0
            ReLU-118            [-1, 160, 8, 8]               0
          Conv2d-119            [-1, 160, 8, 8]           4,000
     BatchNorm2d-120            [-1, 160, 8, 8]               0
          Conv2d-121            [-1, 160, 8, 8]          25,600
     BatchNorm2d-122            [-1, 160, 8, 8]               0
            ReLU-123            [-1, 160, 8, 8]               0
    Choice_Block-124            [-1, 320, 8, 8]               0
          Conv2d-125            [-1, 160, 8, 8]          25,600
     BatchNorm2d-126            [-1, 160, 8, 8]               0
            ReLU-127            [-1, 160, 8, 8]               0
          Conv2d-128            [-1, 160, 8, 8]           4,000
     BatchNorm2d-129            [-1, 160, 8, 8]               0
          Conv2d-130            [-1, 160, 8, 8]          25,600
     BatchNorm2d-131            [-1, 160, 8, 8]               0
            ReLU-132            [-1, 160, 8, 8]               0
    Choice_Block-133            [-1, 320, 8, 8]               0
          Conv2d-134            [-1, 160, 8, 8]          25,600
     BatchNorm2d-135            [-1, 160, 8, 8]               0
            ReLU-136            [-1, 160, 8, 8]               0
          Conv2d-137            [-1, 160, 8, 8]           7,840
     BatchNorm2d-138            [-1, 160, 8, 8]               0
          Conv2d-139            [-1, 160, 8, 8]          25,600
     BatchNorm2d-140            [-1, 160, 8, 8]               0
            ReLU-141            [-1, 160, 8, 8]               0
    Choice_Block-142            [-1, 320, 8, 8]               0
          Conv2d-143            [-1, 160, 8, 8]           1,440
     BatchNorm2d-144            [-1, 160, 8, 8]               0
          Conv2d-145            [-1, 160, 8, 8]          25,600
     BatchNorm2d-146            [-1, 160, 8, 8]               0
            ReLU-147            [-1, 160, 8, 8]               0
          Conv2d-148            [-1, 160, 8, 8]           1,440
     BatchNorm2d-149            [-1, 160, 8, 8]               0
          Conv2d-150            [-1, 160, 8, 8]          25,600
     BatchNorm2d-151            [-1, 160, 8, 8]               0
            ReLU-152            [-1, 160, 8, 8]               0
          Conv2d-153            [-1, 160, 8, 8]           1,440
     BatchNorm2d-154            [-1, 160, 8, 8]               0
          Conv2d-155            [-1, 160, 8, 8]          25,600
     BatchNorm2d-156            [-1, 160, 8, 8]               0
            ReLU-157            [-1, 160, 8, 8]               0
  Choice_Block_x-158            [-1, 320, 8, 8]               0
          Conv2d-159            [-1, 160, 8, 8]          25,600
     BatchNorm2d-160            [-1, 160, 8, 8]               0
            ReLU-161            [-1, 160, 8, 8]               0
          Conv2d-162            [-1, 160, 8, 8]           4,000
     BatchNorm2d-163            [-1, 160, 8, 8]               0
          Conv2d-164            [-1, 160, 8, 8]          25,600
     BatchNorm2d-165            [-1, 160, 8, 8]               0
            ReLU-166            [-1, 160, 8, 8]               0
    Choice_Block-167            [-1, 320, 8, 8]               0
          Conv2d-168            [-1, 160, 8, 8]          25,600
     BatchNorm2d-169            [-1, 160, 8, 8]               0
            ReLU-170            [-1, 160, 8, 8]               0
          Conv2d-171            [-1, 160, 8, 8]           4,000
     BatchNorm2d-172            [-1, 160, 8, 8]               0
          Conv2d-173            [-1, 160, 8, 8]          25,600
     BatchNorm2d-174            [-1, 160, 8, 8]               0
            ReLU-175            [-1, 160, 8, 8]               0
    Choice_Block-176            [-1, 320, 8, 8]               0
          Conv2d-177            [-1, 160, 8, 8]           1,440
     BatchNorm2d-178            [-1, 160, 8, 8]               0
          Conv2d-179            [-1, 160, 8, 8]          25,600
     BatchNorm2d-180            [-1, 160, 8, 8]               0
            ReLU-181            [-1, 160, 8, 8]               0
          Conv2d-182            [-1, 160, 8, 8]           1,440
     BatchNorm2d-183            [-1, 160, 8, 8]               0
          Conv2d-184            [-1, 160, 8, 8]          25,600
     BatchNorm2d-185            [-1, 160, 8, 8]               0
            ReLU-186            [-1, 160, 8, 8]               0
          Conv2d-187            [-1, 160, 8, 8]           1,440
     BatchNorm2d-188            [-1, 160, 8, 8]               0
          Conv2d-189            [-1, 160, 8, 8]          25,600
     BatchNorm2d-190            [-1, 160, 8, 8]               0
            ReLU-191            [-1, 160, 8, 8]               0
  Choice_Block_x-192            [-1, 320, 8, 8]               0
          Conv2d-193            [-1, 160, 8, 8]           1,440
     BatchNorm2d-194            [-1, 160, 8, 8]               0
          Conv2d-195            [-1, 320, 8, 8]          51,200
     BatchNorm2d-196            [-1, 320, 8, 8]               0
            ReLU-197            [-1, 320, 8, 8]               0
          Conv2d-198            [-1, 320, 8, 8]           2,880
     BatchNorm2d-199            [-1, 320, 8, 8]               0
          Conv2d-200            [-1, 320, 8, 8]         102,400
     BatchNorm2d-201            [-1, 320, 8, 8]               0
            ReLU-202            [-1, 320, 8, 8]               0
          Conv2d-203            [-1, 320, 8, 8]           2,880
     BatchNorm2d-204            [-1, 320, 8, 8]               0
          Conv2d-205            [-1, 480, 8, 8]         153,600
     BatchNorm2d-206            [-1, 480, 8, 8]               0
            ReLU-207            [-1, 480, 8, 8]               0
  Choice_Block_x-208            [-1, 640, 8, 8]               0
          Conv2d-209            [-1, 320, 8, 8]           2,880
     BatchNorm2d-210            [-1, 320, 8, 8]               0
          Conv2d-211            [-1, 320, 8, 8]         102,400
     BatchNorm2d-212            [-1, 320, 8, 8]               0
            ReLU-213            [-1, 320, 8, 8]               0
          Conv2d-214            [-1, 320, 8, 8]           2,880
     BatchNorm2d-215            [-1, 320, 8, 8]               0
          Conv2d-216            [-1, 320, 8, 8]         102,400
     BatchNorm2d-217            [-1, 320, 8, 8]               0
            ReLU-218            [-1, 320, 8, 8]               0
          Conv2d-219            [-1, 320, 8, 8]           2,880
     BatchNorm2d-220            [-1, 320, 8, 8]               0
          Conv2d-221            [-1, 320, 8, 8]         102,400
     BatchNorm2d-222            [-1, 320, 8, 8]               0
            ReLU-223            [-1, 320, 8, 8]               0
  Choice_Block_x-224            [-1, 640, 8, 8]               0
          Conv2d-225            [-1, 320, 8, 8]         102,400
     BatchNorm2d-226            [-1, 320, 8, 8]               0
            ReLU-227            [-1, 320, 8, 8]               0
          Conv2d-228            [-1, 320, 8, 8]           8,000
     BatchNorm2d-229            [-1, 320, 8, 8]               0
          Conv2d-230            [-1, 320, 8, 8]         102,400
     BatchNorm2d-231            [-1, 320, 8, 8]               0
            ReLU-232            [-1, 320, 8, 8]               0
    Choice_Block-233            [-1, 640, 8, 8]               0
          Conv2d-234            [-1, 320, 8, 8]         102,400
     BatchNorm2d-235            [-1, 320, 8, 8]               0
            ReLU-236            [-1, 320, 8, 8]               0
          Conv2d-237            [-1, 320, 8, 8]           8,000
     BatchNorm2d-238            [-1, 320, 8, 8]               0
          Conv2d-239            [-1, 320, 8, 8]         102,400
     BatchNorm2d-240            [-1, 320, 8, 8]               0
            ReLU-241            [-1, 320, 8, 8]               0
    Choice_Block-242            [-1, 640, 8, 8]               0
          Conv2d-243           [-1, 1024, 8, 8]         655,360
     BatchNorm2d-244           [-1, 1024, 8, 8]               0
           ReLU6-245           [-1, 1024, 8, 8]               0
AdaptiveAvgPool2d-246           [-1, 1024, 1, 1]               0
          Linear-247                   [-1, 10]          10,240
================================================================
Total params: 2,345,168
Trainable params: 2,345,168
Non-trainable params: 0
----------------------------------------------------------------
Input size (MB): 0.01
Forward/backward pass size (MB): 42.37
Params size (MB): 8.95
Estimated Total Size (MB): 51.33
----------------------------------------------------------------
  0%|                                                                                                     | 0/521 [00:00<?, ?it/s]/home/shixiong/.local/lib/python3.6/site-packages/torch/optim/lr_scheduler.py:224: UserWarning: To get the last learning rate computed by the scheduler, please use `get_last_lr()`.
…
